…
(model,input_size=(1,64,938))","metadata":{"trusted":true,"execution":{"iopub.status.busy":"2025-10-02T10:16:24.354071Z","iopub.execute_input":"2025-10-02T10:16:24.354737Z","iopub.status.idle":"2025-10-02T10:16:24.389976Z","shell.execute_reply.started":"2025-10-02T10:16:24.354706Z","shell.execute_reply":"2025-10-02T10:16:24.389267Z"}},"outputs":[{"name":"stdout","text":"----------------------------------------------------------------\n        Layer (type)               Output Shape         Param #\n================================================================\n            Conv2d-1          [-1, 16, 66, 940]             160\n       BatchNorm2d-2          [-1, 16, 66, 940]              32\n              ReLU-3          [-1, 16, 66, 940]               0\n         MaxPool2d-4          [-1, 16, 33, 470]               0\n           Dropout-5          [-1, 16, 33, 470]               0\n            Conv2d-6          [-1, 32, 35, 472]           4,640\n       BatchNorm2d-7          [-1, 32, 35, 472]              64\n              ReLU-8          [-1, 32, 35, 472]               0\n         MaxPool2d-9          [-1, 32, 17, 236]               0\n          Dropout-10          [-1, 32, 17, 236]               0\n           Conv2d-11          [-1, 64, 19, 238]          18,496\n      BatchNorm2d-12          [-1, 64, 19, 238]             128\n             ReLU-13          [-1, 64, 19, 238]               0\n        MaxPool2d-14           [-1, 64, 9, 119]               0\n          Dropout-15           [-1, 64, 9, 119]               0\nAdaptiveAvgPool2d-16             [-1, 64, 7, 7]               0\n          Flatten-17                 [-1, 3136]               0\n           Linear-18                  [-1, 128]         401,536\n           Linear-19                    [-1, 1]             129\n================================================================\nTotal params: 425,185\nTrainable params: 425,185\nNon-trainable params: 0\n----------------------------------------------------------------\nInput size (MB): 0.23\nForward/backward pass size (MB): 48.28\nParams size (MB): 1.62\nEstimated Total Size (MB): 50.13\n----------------------------------------------------------------\n","o
…
